…
 used the following code line):</p><NewLine><blockquote><NewLine><p>summary(model, (3, 539, 456))):</p><NewLine></blockquote><NewLine><pre><code class=""lang-auto"">[/root/data/models/pytorch/vgg16_from_caffe.pth] Checking md5 (aa75b158f4181e7f6230029eb96c1b13)<NewLine>Train:   0%|                                            | 0/250 [00:00&lt;?, ?it/s]----------------------------------------------------------------<NewLine>        Layer (type)               Output Shape         Param #<NewLine>================================================================<NewLine>            Conv2d-1         [-1, 64, 745, 478]           1,792<NewLine>              ReLU-2         [-1, 64, 745, 478]               0<NewLine>            Conv2d-3         [-1, 64, 745, 478]          36,928<NewLine>              ReLU-4         [-1, 64, 745, 478]               0<NewLine>         MaxPool2d-5         [-1, 64, 373, 239]               0<NewLine>            Conv2d-6        [-1, 128, 373, 239]          73,856<NewLine>              ReLU-7        [-1, 128, 373, 239]               0<NewLine>            Conv2d-8        [-1, 128, 373, 239]         147,584<NewLine>              ReLU-9        [-1, 128, 373, 239]               0<NewLine>        MaxPool2d-10        [-1, 128, 187, 120]               0<NewLine>           Conv2d-11        [-1, 256, 187, 120]         295,168<NewLine>             ReLU-12        [-1, 256, 187, 120]               0<NewLine>           Conv2d-13        [-1, 256, 187, 120]         590,080<NewLine>             ReLU-14        [-1, 256, 187, 120]               0<NewLine>           Conv2d-15        [-1, 256, 187, 120]         590,080<NewLine>             ReLU-16        [-1, 256, 187, 120]               0<NewLine>        MaxPool2d-17          [-1, 256, 94, 60]               0<NewLine>           Conv2d-18          [-1, 512, 94, 60]       1,180,160<NewLine>             ReLU-19          [-1, 512, 94, 60]               0<NewLine>           Conv2d-20          [-1, 512, 94, 60]       2,359,808<NewLine>             ReLU-21          [-1, 512, 94, 60]               0<NewLine>           Conv2d-22          [-1, 512, 94, 60]       2,359,808<NewLine>             ReLU-23          [-1, 512, 94, 60]               0<NewLine>        MaxPool2d-24          [-1, 512, 47, 30]               0<NewLine>           Conv2d-25          [-1, 512, 47, 30]       2,359,808<NewLine>             ReLU-26          [-1, 512, 47, 30]               0<NewLine>           Conv2d-27          [-1, 512, 47, 30]       2,359,808<NewLine>             ReLU-28          [-1, 512, 47, 30]               0<NewLine>           Conv2d-29          [-1, 512, 47, 30]       2,359,808<NewLine>             ReLU-30          [-1, 512, 47, 30]               0<NewLine>        MaxPool2d-31          [-1, 512, 24, 15]               0<NewLine>           Conv2d-32          [-1, 4096, 18, 9]     102,764,544<NewLine>             ReLU-33          [-1, 4096, 18, 9]               0<NewLine>        Dropout2d-34          [-1, 4096, 18, 9]               0<NewLine>           Conv2d-35          [-1, 4096, 18, 9]      16,781,312<NewLine>             ReLU-36          [-1, 4096, 18, 9]               0<NewLine>        Dropout2d-37          [-1, 4096, 18, 9]               0<NewLine>           Conv2d-38             [-1, 8, 18, 9]          32,776<NewLine>  ConvTranspose2d-39            [-1, 8, 38, 20]           1,024<NewLine>           Conv2d-40            [-1, 8, 47, 30]           4,104<NewLine>  ConvTranspose2d-41            [-1, 8, 78, 42]           1,024<NewLine>           Conv2d-42            [-1, 8, 94, 60]           2,056<NewLine>  ConvTranspose2d-43          [-1, 8, 632, 344]          16,384<NewLine>================================================================<NewLine>Total params: 134,317,912<NewLine>Trainable params: 134,317,912<NewLine>Non-trainable params: 0<NewLine>----------------------------------------------------------------<NewLine>Input size (MB): 1.75<NewLine>Forward/backward pass size (MB): 1599.66<NewLine>Params size (MB): 512.38<NewLine>Estimated Total Size (MB): 21
…
