…
temprop=""articleBody""><NewLine><p>Hi, here it is :<br/><NewLine>Ran using the latest nighly <strong>1.7.0.dev20200714+cpu</strong> and <strong>torchvision-0.8.0.dev20200714+cpu</strong></p><NewLine><pre><code class=""lang-python"">Size (MB): 87.218199<NewLine>QConfig(activation=functools.partial(&lt;class 'torch.quantization.observer.HistogramObserver'&gt;, reduce_range=True), weight=functools.partial(&lt;class 'torch.quantization.observer.PerChannelMinMaxObserver'&gt;, dtype=torch.qint8, qscheme=torch.per_channel_symmetric))<NewLine>Model after being fused-prepared: ResNet(<NewLine>  (conv1): Conv2d(<NewLine>    3, 64, kernel_size=(3, 3), stride=(1, 1)<NewLine>    (activation_post_process): HistogramObserver()<NewLine>  )<NewLine>  (bn1): Identity()<NewLine>  (prelu): PReLU(num_parameters=1)<NewLine>  (prelu_q): PReLU_Quantized(<NewLine>    (quantized_op): FloatFunctional(<NewLine>      (activation_post_process): HistogramObserver()<NewLine>    )<NewLine>    (quant): QuantStub(<NewLine>      (activation_post_process): HistogramObserver()<NewLine>    )<NewLine>    (dequant): DeQuantStub()<NewLine>  )<NewLine>  (maxpool): MaxPool2d(kernel_size=2, stride=2, padding=0, dilation=1, ceil_mode=False)<NewLine>  (layer1): Sequential(<NewLine>    (0): IRBlock(<NewLine>      (bn0): BatchNorm2d(<NewLine>        64, eps=1e-05, momentum=0.1, affine=True, track_running_stats=True<NewLine>        (activation_post_process): HistogramObserver()<NewLine>      )<NewLine>      (conv1): Conv2d(<NewLine>        64, 64, kernel_size=(3, 3), stride=(1, 1), padding=(1, 1)<NewLine>        (activation_post_process): HistogramObserver()<NewLine>      )<NewLine>      (bn1): Identity()<NewLine>      (prelu): PReLU(num_parameters=1)<NewLine>      (prelu_q): PReLU_Quantized(<NewLine>        (quantized_op): FloatFunctional(<NewLine>          (activation_post_process): HistogramObserver()<NewLine>        )<NewLine>        (quant): QuantStub(<NewLine>          (activation_post_process): HistogramObserver()<NewLine>        )<NewLine>        (dequant): DeQuantStub()<NewLine>      )<NewLine>      (conv2): Conv2d(<NewLine>        64, 64, kernel_size=(3, 3), stride=(1, 1), padding=(1, 1)<NewLine>        (activation_post_process): HistogramObserver()<NewLine>      )<NewLine>      (bn2): Identity()<NewLine>      (se): SEBlock(<NewLine>        (avg_pool): AdaptiveAvgPool2d(output_size=1)<NewLine>        (mult_xy): FloatFunctional(<NewLine>          (activation_post_process): HistogramObserver()<NewLine>        )<NewLine>        (fc): Sequential(<NewLine>          (0): Linear(<NewLine>            in_features=64, out_features=4, bias=True<NewLine>            (activation_post_process): HistogramObserver()<NewLine>          )<NewLine>          (1): PReLU(num_parameters=1)<NewLine>          (2): Linear(<NewLine>            in_features=4, out_features=64, bias=True<NewLine>            (activation_post_process): HistogramObserver()<NewLine>          )<NewLine>          (3): Sigmoid()<NewLine>        )<NewLine>        (fc1): Linear(<NewLine>          in_features=64, out_features=4, bias=True<NewLine>          (activation_post_process): HistogramObserver()<NewLine>        )<NewLine>        (prelu): PReLU(num_parameters=1)<NewLine>        (fc2): Linear(<NewLine>          in_features=4, out_features=64, bias=True<NewLine>          (activation_post_process): HistogramObserver()<NewLine>        )<NewLine>        (sigmoid): Sigmoid()<NewLine>        (prelu_q): PReLU_Quantized(<NewLine>          (quantized_op): FloatFunctional(<NewLine>            (activation_post_process): HistogramObserver()<NewLine>          )<NewLine>          (quant): QuantStub(<NewLine>            (activation_post_process): HistogramObserver()<NewLine>          )<NewLine>          (dequant): DeQuantStub()<NewLine>        )<NewLine>        (fc_q): Sequential(<NewLine>          (0): Linear(<NewLine>            in_features=64, out_features=4, bias=True<NewLine>            (activation_post_process): HistogramObserver()<NewLine>          )<NewLine>          (1): PReLU_Quantized(<NewLine>            (quantized_op): FloatFunctional(<NewLine>              (activation_post_process): HistogramObserver()<NewLine>            )<NewLine>            (quant): QuantStub(<NewLine>              (activation_post_process): HistogramObserver()<NewLine>            )<NewLine>            (dequant): DeQuantStub()<NewLine>          )<NewLine>          (2): Linear(<NewLine>            in_features=4, out_features=64, bias=True<NewLine>            (activation_post_process): HistogramObserver()<NewLine>          )<NewLine>          (3): Sigmoid()<NewLine>        )<NewLine>      )<NewLine>      (add_residual_relu): FloatFunctional(<NewLine>        (activation_post_process): HistogramObserver()<NewLine>      )<NewLine>    )<NewLine>    (1): IRBlock(<NewLine>      (bn0): BatchNorm2d(<NewLine>        64, eps=1e-05, momentum=0.1, affine=True, track_running_stats=True<NewLine>        (activation_post_process): HistogramObserver()<NewLine>      )<NewLine>      (conv1): Conv2d(<NewLine>        64, 64, kernel_size=(3, 3), stride=(1, 1), padding=(1, 1)<NewLine>        (activation_post_process): HistogramObserver()<NewLine>      )<NewLine>      (bn1): Identity()<NewLine>      (prelu): PReLU(num_parameters=1)<NewLine>      (prelu_q): PReLU_Quantized(<NewLine>        (quantized_op): FloatFunctional(<NewLine>          (activation_post_process): HistogramObserver()<NewLine>        )<NewLine>        (quant): QuantStub(<NewLine>          (activation_post_process): HistogramObserver()<NewLine>        )<NewLine>        (dequant): DeQuantStub()<NewLine>      )<NewLine>      (conv2): Conv2d(<NewLine>        64, 64, kernel_size=(3, 3), stride=(1, 1), padding=(1, 1)<NewLine>        (activation_post_process): HistogramObserver()<NewLine>      )<NewLine>      (bn2): Identity()<NewLine>      (se): SEBlock(<NewLine>        (avg_pool): AdaptiveAvgPool2d(output_size=1)<NewLine>        (mult_xy): FloatFunctional(<NewLine>          (activation_post_process): HistogramObserver()<NewLine>        )<NewLine>        (fc): Sequential(<NewLine>          (0): Linear(<NewLine>            in_features=64, out_features=4, bias=True<NewLine>            (activation_post_process): HistogramObserver()<NewLine>          )<NewLine>          (1): PReLU(num_parameters=1)<NewLine>          (2): Linear(<NewLine>            in_features=4, out_features=64, bias=True<NewLine>            (activation_post_process): HistogramObserver()<NewLine>          )<NewLine>          (3): Sigmoid()<NewLine>        )<NewLine>        (fc1): Linear(<NewLine>          in_features=64, out_features=4, bias=True<NewLine>          (activation_post_process): HistogramObserver()<NewLine>        )<NewLine>        (prelu): PReLU(num_parameters=1)<NewLine>        (fc2): Linear(<NewLine>          in_features=4, out_features=64, bias=True<NewLine>          (activation_post_process): HistogramObserver()<NewLine>        )<NewLine>        (sigmoid): Sigmoid()<NewLine>        (prelu_q): PReLU_Quantized(<NewLine>          (quantized_op): FloatFunctional(<NewLine>            (activation_post_process): HistogramObserver()<NewLine>          )<NewLine>          (quant): QuantStub(<NewLine>            (activation_post_process): HistogramObserver()<NewLine>          )<NewLine>          (dequant): DeQuantStub()<NewLine>        )<NewLine>        (fc_q): Sequential(<NewLine>          (0): Linear(<NewLine>            in_features=64, out_features=4, bias=True<NewLine>            (activation_post_process): HistogramObserver()<NewLine>          )<NewLine>          (1): PReLU_Quantized(<NewLine>            (quantized_op): FloatFunctional(<NewLine>              (activation_post_process): HistogramObserver()<NewLine>            )<NewLine>            (quant): QuantStub(<NewLine>              (activation_post_process): HistogramObserver()<NewLine>            )<NewLine>            (dequant): DeQuantStub()<NewLine>          )<NewLine>          (2): Linear(<NewLine>            in_features=4, out_features=64, bias=True<NewLine>            (activation_post_process): HistogramObserver()<NewLine>          )<NewLine>          (3): Sigmoid()<NewLine>        )<NewLine>      )<NewLine>      (add_residual_relu): FloatFunctional(<NewLine>        (activation_post_process): HistogramObserver()<NewLine>      )<NewLine>    )<NewLine>  )<NewLine>  (layer2): Sequential(<NewLine>    (0): IRBlock(<NewLine>      (bn0): BatchNorm2d(<NewLine>        64, eps=1e-05, momentum=0.1, affine=True, track_running_stats=True<NewLine>        (activation_post_process): HistogramObserver()<NewLine>      )<NewLine>      (conv1): Conv2d(<NewLine>        64, 64, kernel_size=(3, 3), stride=(1, 1), padding=(1, 1)<NewLine>        (activation_post_process): HistogramObserver()<NewLine>      )<NewLine>      (bn1): Identity()<NewLine>      (prelu): PReLU(num_parameters=1)<NewLine>      (prelu_q): PReLU_Quantized(<NewLine>        (quantized_op): FloatFunctional(<NewLine>          (activation_post_process): HistogramObserver()<NewLine>        )<NewLine>        (quant): QuantStub(<NewLine>          (activation_post_process): HistogramObserver()<NewLine>        )<NewLine>        (dequant): DeQuantStub()<NewLine>      )<NewLine>      (conv2): Conv2d(<NewLine>        64, 128, kernel_size=(3, 3), stride=(2, 2), padding=(1, 1)<NewLine>        (activation_post_process): HistogramObserver()<NewLine>      )<NewLine>      (bn2): Identity()<NewLine>      (downsample): Sequential(<NewLine>        (0): Conv2d(<NewLine>          64, 128, kernel_size=(1, 1), stride=(2, 2)<NewLine>          (activation_post_process): HistogramObserver()<NewLine>        )<NewLine>        (1): Identity()<NewLine>      )<NewLine>      (se): SEBlock(<NewLine>        (avg_pool): AdaptiveAvgPool2d(output_size=1)<NewLine>        (mult_xy): FloatFunctional(<NewLine>          (activation_post_process): HistogramObserver()<NewLine>        )<NewLine>        (fc): Sequential(<NewLine>          (0): Linear(<NewLine>            in_features=128, out_features=8, bias=True<NewLine>            (activation_post_process): HistogramObserver()<NewLine>          )<NewLine>          (1): PReLU(num_parameters=1)<NewLine>          (2): Linear(<NewLine>            in_features=8, out_features=128, bias=True<NewLine>            (activation_post_process): HistogramObserver()<NewLine>          )<NewLine>          (3): Sigmoid()<NewLine>        )<NewLine>        (fc1): Linear(<NewLine>          in_features=128, out_features=8, bias=True<NewLine>          (activation_post_process): HistogramObserver()<NewLine>        )<NewLine>        (prelu): PReLU(num_parameters=1)<NewLine>        (fc2): Linear(<NewLine>          in_features=8, out_features=128, bias=True<NewLine>          (activation_post_process): HistogramObserver()<NewLine>        )<NewLine>        (sigmoid): Sigmoid()<NewLine>        (prelu_q): PReLU_Quantized(<NewLine>          (quantized_op): FloatFunctional(<NewLine>            (activation_post_process): HistogramObserver()<NewLine>          )<NewLine>          (quant): QuantStub(<NewLine>            (activation_post_process): HistogramObserver()<NewLine>          )<NewLine>          (dequant): DeQuantStub()<NewLine>        )<NewLine>        (fc_q): Sequential(<NewLine>          (0): Linear(<NewLine>            in_features=128, out_features=8, bias=True<NewLine>            (activation_post_process): HistogramObserver()<NewLine>          )<NewLine>          (1): PReLU_Quantized(<NewLine>            (quantized_op): FloatFunctional(<NewLine>              (activation_post_process): HistogramObserver()<NewLine>            )<NewLine>            (quant): QuantStub(<NewLine>              (activation_post_process): HistogramObserver()<NewLine>            )<NewLine>            (dequant): DeQuantStub()<NewLine>          )<NewLine>          (2): Linear(<NewLine>            in_features=8, out_features=128, bias=True<NewLine>            (activation_post_process): HistogramObserver()<NewLine>          )<NewLine>          (3): Sigmoid()<NewLine>        )<NewLine>      )<NewLine>      (add_residual_relu): FloatFunctional(<NewLine>        (activation_post_process): HistogramObserver()<NewLine>      )<NewLine>    )<NewLine>    (1): IRBlock(<NewLine>      (bn0): BatchNorm2d(<NewLine>        128, eps=1e-05, momentum=0.1, affine=True, track_running_stats=True<NewLine>        (activation_post_process): HistogramObserver()<NewLine>      )<NewLine>      (conv1): Conv2d(<NewLine>        128, 128, kernel_size=(3, 3), stride=(1, 1), padding=(1, 1)<NewLine>        (activation_post_process): HistogramObserver()<NewLine>      )<NewLine>      (bn1): Identity()<NewLine>      (prelu): PReLU(num_parameters=1)<NewLine>      (prelu_q): PReLU_Quantized(<NewLine>        (quantized_op): FloatFunctional(<NewLine>          (activation_post_process): HistogramObserver()<NewLine>        )<NewLine>        (quant): QuantStub(<NewLine>          (activation_post_process): HistogramObserver()<NewLine>        )<NewLine>        (dequant): DeQuantStub()<NewLine>      )<NewLine>      (conv2): Conv2d(<NewLine>        128, 128, kernel_size=(3, 3), stride=(1, 1), padding=(1, 1)<NewLine>        (activation_post_process): HistogramObserver()<NewLine>      )<NewLine>      (bn2): Identity()<NewLine>      (se): SEBlock(<NewLine>        (avg_pool): AdaptiveAvgPool2d(output_size=1)<NewLine>        (mult_xy): FloatFunctional(<NewLine>          (activation_post_process): HistogramObserver()<NewLine>        )<NewLine>        (fc): Sequential(<NewLine>          (0): Linear(<NewLine>            in_features=128, out_features=8, bias=True<NewLine>            (activation_post_process): HistogramObserver()<NewLine>          )<NewLine>          (1): PReLU(num_parameters=1)<NewLine>          (2): Linear(<NewLine>            in_features=8, out_features=128, bias=True<NewLine>            (activation_post_process): HistogramObserver()<NewLine>          )<NewLine>          (3): Sigmoid()<NewLine>        )<NewLine>        (fc1): Linear(<NewLine>          in_features=128, out_features=8, bias=True<NewLine>          (activation_post_process): HistogramObserver()<NewLine>        )<NewLine>        (prelu): PReLU(num_parameters=1)<NewLine>        (fc2): Linear(<NewLine>          in_features=8, out_features=128, bias=True<NewLine>          (activation_post_process): HistogramObserver()<NewLine>        )<NewLine>        (sigmoid): Sigmoid()<NewLine>        (prelu_q): PReLU_Quantized(<NewLine>          (quantized_op): FloatFunctional(<NewLine>            (activation_post_process): HistogramObserver()<NewLine>          )<NewLine>          (quant): QuantStub(<NewLine>            (activation_post_process): HistogramObserver()<NewLine>          )<NewLine>          (dequant): DeQuantStub()<NewLine>        )<NewLine>        (fc_q): Sequential(<NewLine>          (0): Linear(<NewLine>            in_features=128, out_features=8, bias=True<NewLine>            (activation_post_process): HistogramObserver()<NewLine>          )<NewLine>          (1): PReLU_Quantized(<NewLine>            (quantized_op): FloatFunctional(<NewLine>              (activation_post_process): HistogramObserver()<NewLine>            )<NewLine>            (quant): QuantStub(<NewLine>              (activation_post_process): HistogramObserver()<NewLine>            )<NewLine>            (dequant): DeQuantStub()<NewLine>          )<NewLine>          (2): Linear(<NewLine>            in_features=8, out_features=128, bias=True<NewLine>            (activation_post_process): HistogramObserver()<NewLine>          )<NewLine>          (3): Sigmoid()<NewLine>        )<NewLine>      )<NewLine>      (add_residual_relu): FloatFunctional(<NewLine>        (activation_post_process): HistogramObserver()<NewLine>      )<NewLine>    )<NewLine>  )<NewLine>  (layer3): Sequential(<NewLine>    (0): IRBlock(<NewLine>      (bn0): BatchNorm2d(<NewLine>        128, eps=1e-05, momentum=0.<NewLine></code></pre><NewLine><p>and for the sake of completeness, here are  the whole modules used :</p><NewLine><details><NewLine><summary><NewLine>Summary</summary><NewLine><pre><code class=""lang-python"">class PReLU_Quantized(nn.Module):<NewLine>    def __init__(self, prelu_object):<NewLine>        super().__init__()<NewLine>        self.prelu_weig
…
s another sample, this is the model output when I removed all <code>PReLU</code>s and used <code>ReLU</code>s isntead(incase it was a hinderance):</p><NewLine><pre><code class=""lang-python"">Size (MB): 87.205847<NewLine>QConfig(activation=functools.partial(&lt;class 'torch.quantization.observer.HistogramObserver'&gt;, reduce_range=True), weight=functools.partial(&lt;class 'torch.quantization.observer.PerChannelMinMaxObserver'&gt;, dtype=torch.qint8, qscheme=torch.per_channel_symmetric))<NewLine>Model after quantization(converted-prepared): ResNet(<NewLine>  (conv1): ConvReLU2d(<NewLine>    (0): Conv2d(<NewLine>      3, 64, kernel_size=(3, 3), stride=(1, 1)<NewLine>      (activation_post_process): HistogramObserver()<NewLine>    )<NewLine>    (1): ReLU(<NewLine>      (activation_post_process): HistogramObserver()<NewLine>    )<NewLine>  )<NewLine>  (bn1): Identity()<NewLine>  (prelu): PReLU(num_parameters=1)<NewLine>  (prelu_q): PReLU_Quantized(<NewLine>    (quantized_op): FloatFunctional(<NewLine>      (activation_post_process): HistogramObserver()<NewLine>    )<NewLine>    (quant): QuantStub(<NewLine>      (activation_post_process): HistogramObserver()<NewLine>    )<NewLine>    (dequant): DeQuantStub()<NewLine>  )<NewLine>  (reluooo): Identity()<NewLine>  (maxpool): MaxPool2d(kernel_size=2, stride=2, padding=0, dilation=1, ceil_mode=False)<NewLine>  (layer1): Sequential(<NewLine>    (0): IRBlock(<NewLine>      (bn0): BatchNorm2d(<NewLine>        64, eps=1e-05, momentum=0.1, affine=True, track_running_stats=True<NewLine>        (activation_post_process): HistogramObserver()<NewLine>      )<NewLine>      (conv1): ConvReLU2d(<NewLine>        (0): Conv2d(<NewLine>          64, 64, kernel_size=(3, 3), stride=(1, 1), padding=(1, 1)<NewLine>          (activation_post_process): HistogramObserver()<NewLine>        )<NewLine>        (1): ReLU(<NewLine>          (activation_post_process): HistogramObserver()<NewLine>        )<NewLine>      )<NewLine>      (bn1): Identity()<NewLine>      (prelu): PReLU(num_parameters=1)<NewLine>      (prelu_q): PReLU_Quantized(<NewLine>        (quantized_op): FloatFunctional(<NewLine>          (activation_post_process): HistogramObserver()<NewLine>        )<NewLine>        (quant): QuantStub(<NewLine>          (activation_post_process): HistogramObserver()<NewLine>        )<NewLine>        (dequant): DeQuantStub()<NewLine>      )<NewLine>      (reluooo): Identity()<NewLine>      (conv2): Conv2d(<NewLine>        64, 64, kernel_size=(3, 3), stride=(1, 1), padding=(1, 1)<NewLine>        (activation_post_process): HistogramObserver()<NewLine>      )<NewLine>      (bn2): Identity()<NewLine>      (se): SEBlock(<NewLine>        (avg_pool): AdaptiveAvgPool2d(output_size=1)<NewLine>        (mult_xy): FloatFunctional(<NewLine>          (activation_post_process): HistogramObserver()<NewLine>        )<NewLine>        (fc): Sequential(<NewLine>          (0): Linear(<NewLine>            in_features=64, out_features=4, bias=True<NewLine>            (activation_post_process): HistogramObserver()<NewLine>          )<NewLine>          (1): PReLU(num_parameters=1)<NewLine>          (2): Linear(<NewLine>            in_features=4, out_features=64, bias=True<NewLine>            (activation_post_process): HistogramObserver()<NewLine>          )<NewLine>          (3): Sigmoid()<NewLine>        )<NewLine>        (fc1): Linear(<NewLine>          in_features=64, out_features=4, bias=True<NewLine>          (activation_post_process): HistogramObserver()<NewLine>        )<NewLine>        (prelu): PReLU(num_parameters=1)<NewLine>        (fc2): Linear(<NewLine>          in_features=4, out_features=64, bias=True<NewLine>          (activation_post_process): HistogramObserver()<NewLine>        )<NewLine>        (sigmoid): Sigmoid()<NewLine>      )<NewLine>      (add_residual_relu): FloatFunctional(<NewLine>        (activation_post_process): HistogramObserver()<NewLine>      )<NewLine>    )<NewLine>    (1): IRBlock(<NewLine>      (bn0): BatchNorm2d(<NewLine>        64, eps=1e-05, momentum=0.1, affine=True, track_running_stats=True<NewLine>        (activation_post_process): HistogramObserver()<NewLine>      )<NewLine>      (conv1): ConvReLU2d(<NewLine>        (0): Conv2d(<NewLine>          64, 64, kernel_size=(3, 3), stride=(1, 1), padding=(1, 1)<NewLine>          (activation_post_process): HistogramObserver()<NewLine>        )<NewLine>        (1): ReLU(<NewLine>          (activation_post_process): HistogramObserver()<NewLine>        )<NewLine>      )<NewLine>      (bn1): Identity()<NewLine>      (prelu): PReLU(num_parameters=1)<NewLine>      (prelu_q): PReLU_Quantized(<NewLine>        (quantized_op): FloatFunctional(<NewLine>          (activation_post_process): HistogramObserver()<NewLine>        )<NewLine>        (quant): QuantStub(<NewLine>          (activation_post_process): HistogramObserver()<NewLine>        )<NewLine>        (dequant): DeQuantStub()<NewLine>      )<NewLine>      (reluooo): Identity()<NewLine>      (conv2): Conv2d(<NewLine>        64, 64, kernel_size=(3, 3), stride=(1, 1), padding=(1, 1)<NewLine>        (activation_post_process): HistogramObserver()<NewLine>      )<NewLine>      (bn2): Identity()<NewLine>      (se): SEBlock(<NewLine>        (avg_pool): AdaptiveAvgPool2d(output_size=1)<NewLine>        (mult_xy): FloatFunctional(<NewLine>          (activation_post_process): HistogramObserver()<NewLine>        )<NewLine>        (fc): Sequential(<NewLine>          (0): Linear(<NewLine>            in_features=64, out_features=4, bias=True<NewLine>            (activation_post_process): HistogramObserver()<NewLine>          )<NewLine>          (1): PReLU(num_parameters=1)<NewLine>          (2): Linear(<NewLine>            in_features=4, out_features=64, bias=True<NewLine>            (activation_post_process): HistogramObserver()<NewLine>          )<NewLine>          (3): Sigmoid()<NewLine>        )<NewLine>        (fc1): Linear(<NewLine>          in_features=64, out_features=4, bias=True<NewLine>          (activation_post_process): HistogramObserver()<NewLine>        )<NewLine>        (prelu): PReLU(num_parameters=1)<NewLine>        (fc2): Linear(<NewLine>          in_features=4, out_features=64, bias=True<NewLine>          (activation_post_process): HistogramObserver()<NewLine>        )<NewLine>        (sigmoid): Sigmoid()<NewLine>      )<NewLine>      (add_residual_relu): FloatFunctional(<NewLine>        (activation_post_process): HistogramObserver()<NewLine>      )<NewLine>    )<NewLine>  )<NewLine>  (layer2): Sequential(<NewLine>    (0): IRBlock(<NewLine>      (bn0): BatchNorm2d(<NewLine>        64, eps=1e-05, momentum=0.1, affine=True, track_running_stats=True<NewLine>        (activation_post_process): HistogramObserver()<NewLine>      )<NewLine>      (conv1): ConvReLU2d(<NewLine>        (0): Conv2d(<NewLine>          64, 64, kernel_size=(3, 3), stride=(1, 1), padding=(1, 1)<NewLine>          (activation_post_process): HistogramObserver()<NewLine>        )<NewLine>        (1): ReLU(<NewLine>          (activation_post_process): HistogramObserver()<NewLine>        )<NewLine>      )<NewLine>      (bn1): Identity()<NewLine>      (prelu): PReLU(num_parameters=1)<NewLine>      (prelu_q): PReLU_Quantized(<NewLine>        (quantized_op): FloatFunctional(<NewLine>          (activation_post_process): HistogramObserver()<NewLine>        )<NewLine>        (quant): QuantStub(<NewLine>          (activation_post_process): HistogramObserver()<NewLine>        )<NewLine>        (dequant): DeQuantStub()<NewLine>      )<NewLine>      (reluooo): Identity()<NewLine>      (conv2): Conv2d(<NewLine>        64, 128, kernel_size=(3, 3), stride=(2, 2), padding=(1, 1)<NewLine>        (activation_post_process): HistogramObserver()<NewLine>      )<NewLine>      (bn2): Identity()<NewLine>      (downsample): Sequential(<NewLine>        (0): Conv2d(<NewLine>          64, 128, kernel_size=(1, 1), stride=(2, 2)<NewLine>          (activation_post_process): HistogramObserver()<NewLine>        )<NewLine>        (1): Identity()<NewLine>      )<NewLine>      (se): SEBlock(<NewLine>        (avg_pool): AdaptiveAvgPool2d(output_size=1)<NewLine>        (mult_xy): FloatFunctional(<NewLine>          (activation_post_process): HistogramObserver()<NewLine>        )<NewLine>        (fc): Sequential(<NewLine>          (0): Linear(<NewLine>            in_features=128, out_features=8, bias=True<NewLine>            (activation_post_process): HistogramObserver()<NewLine>          )<NewLine>          (1): PReLU(num_parameters=1)<NewLine>          (2): Linear(<NewLine>            in_features=8, out_features=128, bias=True<NewLine>            (activation_post_process): HistogramObserver()<NewLine>          )<NewLine>          (3): Sigmoid()<NewLine>        )<NewLine>        (fc1): Linear(<NewLine>          in_features=128, out_features=8, bias=True<NewLine>          (activation_post_process): HistogramObserver()<NewLine>        )<NewLine>        (prelu): PReLU(num_parameters=1)<NewLine>        (fc2): Linear(<NewLine>          in_features=8, out_features=128, bias=True<NewLine>          (activation_post_process): HistogramObserver()<NewLine>        )<NewLine>        (sigmoid): Sigmoid()<NewLine>      )<NewLine>      (add_residual_relu): FloatFunctional(<NewLine>        (activation_post_process): HistogramObserver()<NewLine>      )<NewLine>    )<NewLine>    (1): IRBlock(<NewLine>      (bn0): BatchNorm2d(<NewLine>        128, eps=1e-05, momentum=0.1, affine=True, track_running_stats=True<NewLine>        (activation_post_process): HistogramObserver()<NewLine>      )<NewLine>      (conv1): ConvReLU2d(<NewLine>        (0): Conv2d(<NewLine>          128, 128, kernel_size=(3, 3), stride=(1, 1), padding=(1, 1)<NewLine>          (activation_post_process): HistogramObserver()<NewLine>        )<NewLine>        (1): ReLU(<NewLine>          (activation_post_process): HistogramObserver()<NewLine>        )<NewLine>      )<NewLine>      (bn1): Identity()<NewLine>      (prelu): PReLU(num_parameters=1)<NewLine>      (prelu_q): PReLU_Quantized(<NewLine>        (quantized_op): FloatFunctional(<NewLine>          (activation_post_process): HistogramObserver()<NewLine>        )<NewLine>        (quant): QuantStub(<NewLine>          (activation_post_process): HistogramObserver()<NewLine>        )<NewLine>        (dequant): DeQuantStub()<NewLine>      )<NewLine>      (reluooo): Identity()<NewLine>      (conv2): Conv2d(<NewLine>        128, 128, kernel_size=(3, 3), stride=(1, 1), padding=(1, 1)<NewLine>        (activation_post_process): HistogramObserver()<NewLine>      )<NewLine>      (bn2): Identity()<NewLine>      (se): SEBlock(<NewLine>        (avg_pool): AdaptiveAvgPool2d(output_size=1)<NewLine>        (mult_xy): FloatFunctional(<NewLine>          (activation_post_process): HistogramObserver()<NewLine>        )<NewLine>        (fc): Sequential(<NewLine>          (0): Linear(<NewLine>            in_features=128, out_features=8, bias=True<NewLine>            (activation_post_process): HistogramObserver()<NewLine>          )<NewLine>          (1): PReLU(num_parameters=1)<NewLine>          (2): Linear(<NewLine>            in_features=8, out_features=128, bias=True<NewLine>            (activation_post_process): HistogramObserver()<NewLine>          )<NewLine>          (3): Sigmoid()<NewLine>        )<NewLine>        (fc1): Linear(<NewLine>          in_features=128, out_features=8, bias=True<NewLine>          (activation_post_process): HistogramObserver()<NewLine>        )<NewLine>        (prelu): PReLU(num_parameters=1)<NewLine>        (fc2): Linear(<NewLine>          in_features=8, out_features=128, bias=True<NewLine>          (activation_post_process): HistogramObserver()<NewLine>        )<NewLine>        (sigmoid): Sigmoid()<NewLine>      )<NewLine>      (add_residual_relu): FloatFunctional(<NewLine>        (activation_post_process): HistogramObserver()<NewLine>      )<NewLine>    )<NewLine>  )<NewLine>  (layer3): Sequential(<NewLine>    (0)<NewLine>Post Training Quantization Prepare: Inserting Observers<NewLine><NewLine> Inverted Residual Block:After observer insertion<NewLine><NewLine> ConvReLU2d(<NewLine>  (0): Conv2d(<NewLine>    3, 64, kernel_size=(3, 3), stride=(1, 1)<NewLine>    (activation_post_process): HistogramObserver()<NewLine>  )<NewLine>  (1): ReLU(<NewLine>    (activation_post_process): HistogramObserver()<NewLine>  )<NewLine>)<NewLine></code></pre><NewLine><p>This is the error I get when using this model (above):</p><NewLine><pre><code class=""lang-python"">--------------------------<NewLine>Trace
…
xes<NewLine><NewLine><NewLine>model = SimpleNet(<NewLine>        net_1.base_net,<NewLine>        net_1.regression_headers,<NewLine>        net_1.classification_headers,<NewLine>        net_1.extras[0],<NewLine>        net_1.priors,<NewLine>        net_1.config)<NewLine><NewLine>model.eval()<NewLine>model = torch.quantization.convert(model, inplace=False) # error here<NewLine></code></pre><NewLine><details><NewLine><summary>Heres the `print(model)` output:</summary><NewLine><pre><code class=""lang-auto"">SimpleNet(<NewLine>  (backbone0): Sequential(<NewLine>    (0): Sequential(<NewLine>      (0): Conv2d(3, 16, kernel_size=(3, 3), stride=(2, 2), padding=(1, 1), bias=False)<NewLine>      (1): BatchNorm2d(16, eps=1e-05, momentum=0.1, affine=True, track_running_stats=True)<NewLine>      (2): ReLU()<NewLine>    )<NewLine>    (1): Sequential(<NewLine>      (0): Conv2d(16, 16, kernel_size=(3, 3), stride=(1, 1), padding=(1, 1), groups=16, bias=False)<NewLine>      (1): BatchNorm2d(16, eps=1e-05, momentum=0.1, affine=True, track_running_stats=True)<NewLine>      (2): ReLU()<NewLine>      (3): Conv2d(16, 32, kernel_size=(1, 1), stride=(1, 1), bias=False)<NewLine>      (4): BatchNorm2d(32, eps=1e-05, momentum=0.1, affine=True, track_running_stats=True)<NewLine>      (5): ReLU()<NewLine>    )<NewLine>    (2): Sequential(<NewLine>      (0): Conv2d(32, 32, kernel_size=(3, 3), stride=(2, 2), padding=(1, 1), groups=32, bias=False)<NewLine>      (1): BatchNorm2d(32, eps=1e-05, momentum=0.1, affine=True, track_running_stats=True)<NewLine>      (2): ReLU()<NewLine>      (3): Conv2d(32, 32, kernel_size=(1, 1), stride=(1, 1), bias=False)<NewLine>      (4): BatchNorm2d(32, eps=1e-05, momentum=0.1, affine=True, track_running_stats=True)<NewLine>      (5): ReLU()<NewLine>    )<NewLine>    (3): Sequential(<NewLine>      (0): Conv2d(32, 32, kernel_size=(3, 3), stride=(1, 1), padding=(1, 1), groups=32, bias=False)<NewLine>      (1): BatchNorm2d(32, eps=1e-05, momentum=0.1, affine=True, track_running_stats=True)<NewLine>      (2): ReLU()<NewLine>      (3): Conv2d(32, 32, kernel_size=(1, 1), stride=(1, 1), bias=False)<NewLine>      (4): BatchNorm2d(32, eps=1e-05, momentum=0.1, affine=True, track_running_stats=True)<NewLine>      (5): ReLU()<NewLine>    )<NewLine>    (4): Sequential(<NewLine>      (0): Conv2d(32, 32, kernel_size=(3, 3), stride=(2, 2), padding=(1, 1), groups=32, bias=False)<NewLine>      (1): BatchNorm2d(32, eps=1e-05, momentum=0.1, affine=True, track_running_stats=True)<NewLine>      (2): ReLU()<NewLine>      (3): Conv2d(32, 64, kernel_size=(1, 1), stride=(1, 1), bias=False)<NewLine>      (4): BatchNorm2d(64, eps=1e-05, momentum=0.1, affine=True, track_running_stats=True)<NewLine>      (5): ReLU()<NewLine>    )<NewLine>    (5): Sequential(<NewLine>      (0): Conv2d(64, 64, kernel_size=(3, 3), stride=(1, 1), padding=(1, 1), groups=64, bias=False)<NewLine>      (1): BatchNorm2d(64, eps=1e-05, momentum=0.1, affine=True, track_running_stats=True)<NewLine>      (2): ReLU()<NewLine>      (3): Conv2d(64, 64, kernel_size=(1, 1), stride=(1, 1), bias=False)<NewLine>      (4): BatchNorm2d(64, eps=1e-05, momentum=0.1, affine=True, track_running_stats=True)<NewLine>      (5): ReLU()<NewLine>    )<NewLine>    (6): Sequential(<NewLine>      (0): Conv2d(64, 64, kernel_size=(3, 3), stride=(1, 1), padding=(1, 1), groups=64, bias=False)<NewLine>      (1): BatchNorm2d(64, eps=1e-05, momentum=0.1, affine=True, track_running_stats=True)<NewLine>      (2): ReLU()<NewLine>      (3): Conv2d(64, 64, kernel_size=(1, 1), stride=(1, 1), bias=False)<NewLine>      (4): BatchNorm2d(64, eps=1e-05, momentum=0.1, affine=True, track_running_stats=True)<NewLine>      (5): ReLU()<NewLine>    )<NewLine>    (7): BasicRFB(<NewLine>      (branch0): Sequential(<NewLine>        (0): BasicConv(<NewLine>          (conv): Conv2d(64, 8, kernel_size=(1, 1), stride=(1, 1), bias=False)<NewLine>          (bn): BatchNorm2d(8, eps=1e-05, momentum=0.01, affine=True, track_running_stats=True)<NewLine>        )<NewLine>        (1): BasicConv(<NewLine>          (conv): Conv2d(8, 16, kernel_size=(3, 3), stride=(1, 1), padding=(1, 1), bias=False)<NewLine>          (bn): BatchNorm2d(16, eps=1e-05, momentum=0.01, affine=True, track_running_stats=True)<NewLine>          (activation_fn): ReLU()<NewLine>        )<NewLine>        (2): BasicConv(<NewLine>          (conv): Conv2d(16, 16, kernel_size=(3, 3), stride=(1, 1), padding=(2, 2), dilation=(2, 2), bias=False)<NewLine>          (bn): BatchNorm2d(16, eps=1e-05, momentum=0.01, affine=True, track_running_stats=True)<NewLine>        )<NewLine>      )<NewLine>      (branch1): Sequential(<NewLine>        (0): BasicConv(<NewLine>          (conv): Conv2d(64, 8, kernel_size=(1, 1), stride=(1, 1), bias=False)<NewLine>          (bn): BatchNorm2d(8, eps=1e-05, momentum=0.01, affine=True, track_running_stats=True)<NewLine>        )<NewLine>        (1): BasicConv(<NewLine>          (conv): Conv2d(8, 16, kernel_size=(3, 3), stride=(1, 1), padding=(1, 1), bias=False)<NewLine>          (bn): BatchNorm2d(16, eps=1e-05, momentum=0.01, affine=True, track_running_stats=True)<NewLine>          (activation_fn): ReLU()<NewLine>        )<NewLine>        (2): BasicConv(<NewLine>          (conv): Conv2d(16, 16, kernel_size=(3, 3), stride=(1, 1), padding=(3, 3), dilation=(3, 3), bias=False)<NewLine>          (bn): BatchNorm2d(16, eps=1e-05, momentum=0.01, affine=True, track_running_stats=True)<NewLine>        )<NewLine>      )<NewLine>      (branch2): Sequential(<NewLine>        (0): BasicConv(<NewLine>          (conv): Conv2d(64, 8, kernel_size=(1, 1), stride=(1, 1), bias=False)<NewLine>          (bn): BatchNorm2d(8, eps=1e-05, momentum=0.01, affine=True, track_running_stats=True)<NewLine>        )<NewLine>        (1): BasicConv(<NewLine>          (conv): Conv2d(8, 12, kernel_size=(3, 3), stride=(1, 1), padding=(1, 1), bias=False)<NewLine>          (bn): BatchNorm2d(12, eps=1e-05, momentum=0.01, affine=True, track_running_stats=True)<NewLine>          (activation_fn): ReLU()<NewLine>        )<NewLine>        (2): BasicConv(<NewLine>          (conv): Conv2d(12, 16, kernel_size=(3, 3), stride=(1, 1), padding=(1, 1), bias=False)<NewLine>          (bn): BatchNorm2d(16, eps=1e-05, momentum=0.01, affine=True, track_running_stats=True)<NewLine>          (activation_fn): ReLU()<NewLine>        )<NewLine>        (3): BasicConv(<NewLine>          (conv): Conv2d(16, 16, kernel_size=(3, 3), stride=(1, 1), padding=(5, 5), dilation=(5, 5), bias=False)<NewLine>          (bn): BatchNorm2d(16, eps=1e-05, momentum=0.01, affine=True, track_running_stats=True)<NewLine>        )<NewLine>      )<NewLine>      (ConvLinear): BasicConv(<NewLine>        (conv): Conv2d(48, 64, kernel_size=(1, 1), stride=(1, 1), bias=False)<NewLine>        (bn): BatchNorm2d(64, eps=1e-05, momentum=0.01, affine=True, track_running_stats=True)<NewLine>      )<NewLine>      (shortcut): BasicConv(<NewLine>        (conv): Conv2d(64, 64, kernel_size=(1, 1), stride=(1, 1), bias=False)<NewLine>        (bn): BatchNorm2d(64, eps=1e-05, momentum=0.01, affine=True, track_running_stats=True)<NewLine>      )<NewLine>      (activation_fn): ReLU()<NewLine>    )<NewLine>  )<NewLine>  (backbone1): Sequential(<NewLine>    (8): Sequential(<NewLine>      (0): Conv2d(64, 64, kernel_size=(3, 3), stride=(2, 2), padding=(1, 1), groups=64, bias=False)<NewLine>      (1): BatchNorm2d(64, eps=1e-05, momentum=0.1, affine=True, track_running_stats=True)<NewLine>      (2): ReLU()<NewLine>      (3): Conv2d(64, 128, kernel_size=(1, 1), stride=(1, 1), bias=False)<NewLine>      (4): BatchNorm2d(128, eps=1e-05, momentum=0.1, affine=True, track_running_stats=True)<NewLine>      (5): ReLU()<NewLine>    )<NewLine>    (9): Sequential(<NewLine>      (0): Conv2d(128, 128, kernel_size=(3, 3), stride=(1, 1), padding=(1, 1), groups=128, bias=False)<NewLine>      (1): BatchNorm2d(128, eps=1e-05, momentum=0.1, affine=True, track_running_stats=True)<NewLine>      (2): ReLU()<NewLine>      (3): Conv2d(128, 128, kernel_size=(1, 1), stride=(1, 1), bias=False)<NewLine>      (4): BatchNorm2d(128, eps=1e-05, momentum=0.1, affine=True, track_running_stats=True)<NewLine>      (5): ReLU()<NewLine>    )<NewLine>    (10): Sequential(<NewLine>      (0): Conv2d(128, 128, kernel_size=(3, 3), stride=(1, 1), padding=(1, 1), groups=128, bias=False)<NewLine>      (1): BatchNorm2d(128, eps=1e-05, momentum=0.1, affine=True, track_running_stats=True)<NewLine>      (2): ReLU()<NewLine>      (3): Conv2d(128, 128, kernel_size=(1, 1), stride=(1, 1), bias=False)<NewLine>      (4): BatchNorm2d(128, eps=1e-05, momentum=0.1, affine=True, track_running_stats=True)<NewLine>      (5): ReLU()<NewLine>    )<NewLine>  )<NewLine>  (backbone2): Sequential(<NewLine>    (11): Sequential(<NewLine>      (0): Conv2d(128, 128, kernel_size=(3, 3), stride=(2, 2), padding=(1, 1), groups=128, bias=False)<NewLine>      (1): BatchNorm2d(128, eps=1e-05, momentum=0.1, affine=True, track_running_stats=True)<NewLine>      (2): ReLU()<NewLine>      (3): Conv2d(128, 256, kernel_size=(1, 1), stride=(1, 1), bias=False)<NewLine>      (4): BatchNorm2d(256, eps=1e-05, momentum=0.1, affine=True, track_running_stats=True)<NewLine>      (5): ReLU()<NewLine>    )<NewLine>    (12): Sequential(<NewLine>      (0): Conv2d(256, 256, kernel_size=(3, 3), stride=(1, 1), padding=(1, 1), groups=256, bias=False)<NewLine>      (1): BatchNorm2d(256, eps=1e-05, momentum=0.1, affine=True, track_running_stats=True)<NewLine>      (2): ReLU()<NewLine>      (3): Conv2d(256, 256, kernel_size=(1, 1), stride=(1, 1), bias=False)<NewLine>      (4): BatchNorm2d(256, eps=1e-05, momentum=0.1, affine=True, track_running_stats=True)<NewLine>      (5): ReLU()<NewLine>    )<NewLine>  )<NewLine>  (last_chunk): Sequential()<NewLine>  (regression_headers0): Sequential(<NewLine>    (0): Conv2d(64, 64, kernel_size=(3, 3), stride=(1, 1), padding=(1, 1), groups=64)<NewLine>    (1): ReLU()<NewLine>    (2): Conv2d(64, 12, kernel_size=(1, 1), stride=(1, 1))<NewLine>  )<NewLine>  (regression_headers1): Sequential(<NewLine>    (0): Conv2d(128, 128, kernel_size=(3, 3), stride=(1, 1), padding=(1, 1), groups=128)<NewLine>    (1): ReLU()<NewLine>    (2): Conv2d(128, 8, kernel_size=(1, 1), stride=(1, 1))<NewLine>  )<NewLine>  (regression_headers2): Sequential(<NewLine>    (0): Conv2d(256, 256, kernel_size=(3, 3), stride=(1, 1), padding=(1, 1), groups=256)<NewLine>    (1): ReLU()<NewLine>    (2): Conv2d(256, 8, kernel_size=(1, 1), stride=(1, 1))<NewLine>  )<NewLine>  (regression_headers3): Conv2d(256, 12, kernel_size=(3, 3), stride=(1, 1), padding=(1, 1))<NewLine>  (classification_headers0): Sequential(<NewLine>    (0): Conv2d(64, 64, kernel_size=(3, 3), stride=(1, 1), padding=(1, 1), groups=64)<NewLine>    (1): ReLU()<NewLine>    (2): Conv2d(64, 6, kernel_size=(1, 1), stride=(1, 1))<NewLine>  )<NewLine>  (classification_headers1): Sequential(<NewLine>    (0): Conv2d(128, 128, kernel_size=(3, 3), stride=(1, 1), padding=(1, 1), groups=128)<NewLine>    (1): ReLU()<NewLine>    (2): Conv2d(128, 4, kernel_size=(1, 1), stride=(1, 1))<NewLine>  )<NewLine>  (classification_headers2): Sequential(<NewLine>    (0): Conv2d(256, 256, kernel_size=(3, 3), stride=(1, 1), padding=(1, 1), groups=256)<NewLine>    (1): ReLU()<NewLine>    (2): Conv2d(256, 4, kernel_size=(1, 1), stride=(1, 1))<NewLine>  )<NewLine>  (classification_headers3): Conv2d(256, 6, kernel_size=(3, 3), stride=(1, 1), padding=(1, 1))<NewLine>  (extras): Sequential(<NewLine>    (0): Conv2d(256, 64, kernel_size=(1, 1), stride=(1, 1))<NewLine>    (1): ReLU()<NewLine>    (2): Sequential(<NewLine>      (0): Conv2d(64, 64, kernel_size=(3, 3), stride=(2, 2), padding=(1, 1), groups=64)<NewLine>      (1): ReLU()<NewLine>      (2): Conv2d(64, 256, kernel_size=(1, 1), stride=(1, 1))<NewLine>    )<NewLine>    (3): ReLU()<NewLine>  )<NewLine>  (last_op): Softmax(dim=-1)<NewLine>)<NewLine><NewLine></code></pre><NewLine></details><NewLine><p>It appeared that something could not be pickled in the model - so I tried using <code>dill</code>:</p><NewLine><pre><code class=""lang-auto"">dill.detect.trace(True)<NewLine>dill.detect.errors(model
…
74056,MobileNetV2 + SSDLite quantization results in different model definition,2020-03-22T18:16:27.184Z,6,352,"<div class=""post"" itemprop=""articleBody""><NewLine><p>I’m trying to quantize a mobilenetv2  + SSDLite model from <code>https://github.com/qfgaohao/pytorch-ssd</code></p><NewLine><p>I followed the tutorial here <code>https://pytorch.org/tutorials/advanced/static_quantization_tutorial.html</code> doing  <strong>Post-training static quantization</strong></p><NewLine><p>Before quantizing the model definition looks like this</p><NewLine><pre><code class=""lang-auto"">SSD(<NewLine>  (base_net): Sequential(<NewLine>    (0): Sequential(<NewLine>      (0): Conv2d(3, 32, kernel_size=(3, 3), stride=(2, 2), padding=(1, 1), bias=False)<NewLine>      (1): BatchNorm2d(32, eps=1e-05, momentum=0.1, affine=True, track_running_stats=True)<NewLine>      (2): ReLU6(inplace=True)<NewLine>    )<NewLine>    (1): InvertedResidual(<NewLine>      (conv): Sequential(<NewLine>        (0): Conv2d(32, 32, kernel_size=(3, 3), stride=(1, 1), padding=(1, 1), groups=32, bias=False)<NewLine>        (1): BatchNorm2d(32, eps=1e-05, momentum=0.1, affine=True, track_running_stats=True)<NewLine>        (2): ReLU6(inplace=True)<NewLine>        (3): Conv2d(32, 16, kernel_size=(1, 1), stride=(1, 1), bias=False)<NewLine>        (4): BatchNorm2d(16, eps=1e-05, momentum=0.1, affine=True, track_running_stats=True)<NewLine>      )<NewLine>    )<NewLine>    (2): InvertedResidual(<NewLine>      (conv): Sequential(<NewLine>        (0): Conv2d(16, 96, kernel_size=(1, 1), stride=(1, 1), bias=False)<NewLine>        (1): BatchNorm2d(96, eps=1e-05, momentum=0.1, affine=True, track_running_stats=True)<NewLine>        (2): ReLU6(inplace=True)<NewLine>        (3): Conv2d(96, 96, kernel_size=(3, 3), stride=(2, 2), padding=(1, 1), groups=96, bias=False)<NewLine>        (4): BatchNorm2d(96, eps=1e-05, momentum=0.1, affine=True, track_running_stats=True)<NewLine>        (5): ReLU6(inplace=True)<NewLine>        (6): Conv2d(96, 24, kernel_size=(1, 1), stride=(1, 1), bias=False)<NewLine>        (7): BatchNorm2d(24, eps=1e-05, momentum=0.1, affine=True, track_running_stats=True)<NewLine>      )<NewLine>    )<NewLine>    **#Removed some stuff to stay under 32K characters**<NewLine>    (5): Conv2d(64, 24, kernel_size=(1, 1), stride=(1, 1))<NewLine>  )<NewLine>  (source_layer_add_ons): ModuleList()<NewLine>)<NewLine></code></pre><NewLine><p>Quantization is done using :</p><NewLine><pre><code class=""lang-auto"">model.eval().to('cpu')<NewLine>model.fuse_model()<NewLine>model.qconfig = torch.quantization.get_default_qconfig('fbgemm')<NewLine>torch.quantization.prepare(model, inplace=True)<NewLine>torch.quantization.convert(model, inplace=True)<NewLine></code></pre><NewLine><p>After quantization the model definition looks like this :</p><NewLine><pre><code class=""lang-auto"">SSD(<NewLine>  (base_net): Sequential(<NewLine>    (0): Sequential(<NewLine>      (0): QuantizedConv2d(3, 32, kernel_size=(3, 3), stride=(2, 2), scale=1.0, zero_point=0, padding=(1, 1), bias=False)<NewLine>      (1): BatchNorm2d(32, eps=1e-05, momentum=0.1, affine=True, track_running_stats=True)<NewLine>      (2): QuantizedReLU6(inplace=True)<NewLine>    )<NewLine>    (1): InvertedResidual(<NewLine>      (conv): Sequential(<NewLine>        (0): QuantizedConv2d(32, 32, kernel_size=(3, 3), stride=(1, 1), scale=1.0, zero_point=0, padding=(1, 1), groups=32, bias=False)<NewLine>        (1): BatchNorm2d(32, eps=1e-05, momentum=0.1, affine=True, track_running_stats=True)<NewLine>        (2): QuantizedReLU6(inplace=True)<NewLine>        (3): QuantizedConv2d(32, 16, kernel_size=(1, 1), stride=(1, 1), scale=1.0, zero_point=0, bias=False)<NewLine>        (4): BatchNorm2d(16, eps=1e-05, momentum=0.1, affine=True, track_running_stats=True)<NewLine>      )<NewLine>    )<NewLine>    (2): InvertedResidual(<NewLine>      (conv): Sequential(<NewLine>        (0): QuantizedConv2d(16, 96, kernel_size=(1, 1), stride=(1, 1), scale=1.0, zero_point=0, bias=False)<NewLine>        (1): BatchNorm2d(96, eps=1e-05, momentum=0.1, affine=True, track_running_stats=True)<NewLine>        (2): QuantizedReLU6(inplace=True)<NewLine>        (3): QuantizedConv2d(96, 96, kernel_size=(3, 3), stride=(2, 2), scale=1.0, zero_point=0, padding=(1, 1), groups=96, bias=False)<NewLine>        (4): BatchNorm2d(96, eps=1e-05, momentum=0.1, affine=True, track_running_stats=True)<NewLine>        (5): QuantizedReLU6(inplace=True)<NewLine>        (6): QuantizedConv2d(96, 24, kernel_size=(1, 1), stride=(1, 1), scale=1.0, zero_point=0, bias=False)<NewLine>        (7): BatchNorm2d(24, eps=1e-05, momentum=0.1, affine=True, track_running_stats=True)<NewLine>      )<NewLine>    )<NewLine> <NewLine>**#Removed some stuff to stay under 32K characters**<NewLine><NewLine>    (5): QuantizedConv2d(64, 24, kernel_size=(1, 1), stride=(1, 1), scale=1.0, zero_point=0)<NewLine>  )<NewLine>  (source_layer_add_ons): ModuleList()<NewLine>)<NewLine><NewLine></code></pre><NewLine><p>Model size
…
o take a look at our test to see how to use the fusion API: <a href=""https://github.com/pytorch/pytorch/blob/master/test/test_quantization.py#L949"" rel=""nofollow noopener"">https://github.com/pytorch/pytorch/blob/master/test/test_quantization.py#L949</a></p><NewLine></div>; <NewLine> REPLY 4: <div class=""post"" itemprop=""articleBody""><NewLine><p>Hello Jerry, thanks for reply!<br/><NewLine>I have check the test doing fusion, but I still have some quesion<br/><NewLine>Here is my model before fused</p><NewLine><pre><code class=""lang-auto"">CNN(<NewLine>  (conv1): ConvBNReLU(<NewLine>    (0): Conv2d(3, 16, kernel_size=(3, 3), stride=(1, 1), padding=(1, 1), bias=False)<NewLine>    (1): BatchNorm2d(16, eps=1e-05, momentum=0.1, affine=True, track_running_stats=True)<NewLine>    (2): ReLU()<NewLine>  )<NewLine>  (conv2): ConvBNReLU(<NewLine>    (0): Conv2d(16, 32, kernel_size=(3, 3), stride=(1, 1), padding=(1, 1), bias=False)<NewLine>    (1): BatchNorm2d(32, eps=1e-05, momentum=0.1, affine=True, track_running_stats=True)<NewLine>    (2): ReLU()<NewLine>  )<NewLine>  (quant): QuantStub()<NewLine>  (dequant): DeQuantStub()<NewLine>  (out): Linear(in_features=32768, out_features=10, bias=True)<NewLine>)<NewLine><NewLine></code></pre><NewLine><p>And here is after fused</p><NewLine><pre><code class=""lang-auto"">CNN(<NewLine>  (conv1): ConvBNReLU(<NewLine>    (0): ConvBnReLU2d(<NewLine>      (0): Conv2d(3, 16, kernel_size=(3, 3), stride=(1, 1), padding=(1, 1), bias=False)<NewLine>      (1): BatchNorm2d(16, eps=1e-05, momentum=0.1, affine=True, track_running_stats=True)<NewLine>      (2): ReLU()<NewLine>    )<NewLine>    (1): Identity()<NewLine>    (2): Identity()<NewLine>  )<NewLine>  (conv2): ConvBNReLU(<NewLine>    (0): ConvBnReLU2d(<NewLine>      (0): Conv2d(16, 32, kernel_size=(3, 3), stride=(1, 1), padding=(1, 1), bias=False)<NewLine>      (1): BatchNorm2d(32, eps=1e-05, momentum=0.1, affine=True, track_running_stats=True)<NewLine>      (2): ReLU()<NewLine>    )<NewLine>    (1): Identity()<NewLine>    (2): Identity()<NewLine>  )<NewLine>  (quant): QuantStub()<NewLine>  (dequant): DeQuantStub()<NewLine>  (out): Linear(in_features=32768, out_features=10, bias=True)<NewLine>)<NewLine><NewLine></code></pre><NewLine><p>It seems like conv BN ReLU have been converted to ConvBNReLU2d, did I miss anything?<br/><NewLine>I’m doing with post training, is it only conv ReLU can be quantized?</p><NewLine><p>And the model in section “Define dataset and data loaders”(<a href=""https://pytorch.org/tutorials/advanced/static_quan
…
e></code></pre><NewLine></div>",https://discuss.pytorch.org/u/Mxbonn,(Maxim),Mxbonn,"October 23, 2019, 11:57am",,"REPLY 1: <div class=""post"" itemprop=""articleBody""><NewLine><p>This means you are feeding a quantized tensor to fake_quantize op, which only supports unquantized tensor, probably because the op with FakeQuantize is not swapped out somehow after the convert, can you paste the model?</p><NewLine></div>; <NewLine> REPLY 2: <div class=""post"" itemprop=""articleBody""><NewLine><p>My original model looks like:</p><NewLine><pre><code class=""lang-auto"">ResNetCifar10(<NewLine>  (conv1): Conv2d(3, 16, kernel_size=(3, 3), stride=(1, 1), padding=(1, 1), bias=False)<NewLine>  (bn1): BatchNorm2d(16, eps=1e-05, momentum=0.1, affine=True, track_running_stats=True)<NewLine>  (relu): ReLU()<NewLine>  (layer1): Sequential(<NewLine>    (0): BasicBlockCifar10(<NewLine>      (conv1): Conv2d(16, 16, kernel_size=(3, 3), stride=(1, 1), padding=(1, 1), bias=False)<NewLine>      (bn1): BatchNorm2d(16, eps=1e-05, momentum=0.1, affine=True, track_running_stats=True)<NewLine>      (relu1): ReLU()<NewLine>      (conv2): Conv2d(16, 16, kernel_size=(3, 3), stride=(1, 1), padding=(1, 1), bias=False)<NewLine>      (bn2): BatchNorm2d(16, eps=1e-05, momentum=0.1, affine=True, track_running_stats=True)<NewLine>      (relu2): ReLU()<NewLine>      (shortcut): Sequential()<NewLine>    )<NewLine>    (1): BasicBlockCifar10(<NewLine>      (conv1): Conv2d(16, 16, kernel_size=(3, 3), stride=(1, 1), padding=(1, 1), bias=False)<NewLine>      (bn1): BatchNorm2d(16, eps=1e-05, momentum=0.1, affine=True, track_running_stats=True)<NewLine>      (relu1): ReLU()<NewLine>      (conv2): Conv2d(16, 16, kernel_size=(3, 3), stride=(1, 1), padding=(1, 1), bias=False)<NewLine>      (bn2): BatchNorm2d(16, eps=1e-05, momentum=0.1, affine=True, track_running_stats=True)<NewLine>      (relu2): ReLU()<NewLine>      (shortcut): Sequential()<NewLine>    )<NewLine>    (2): BasicBlockCifar10(<NewLine>      (conv1): Conv2d(16, 16, kernel_size=(3, 3), stride=(1, 1), padding=(1, 1), bias=False)<NewLine>      (bn1): BatchNorm2d(16, eps=1e-05, momentum=0.1, affine=True, track_running_stats=True)<NewLine>      (relu1): ReLU()<NewLine>      (conv2): Conv2d(16, 16, kernel_size=(3, 3), stride=(1, 1), padding=(1, 1), bias=False)<NewLine>      (bn2): BatchNorm2d(16, eps=1e-05, momentum=0.1, affine=True, track_running_stats=True)<NewLine>      (relu2): ReLU()<NewLine>      (shortcut): Sequential()<NewLine>    )<NewLine>  )<NewLine>  (layer2): Sequential(<NewLine>    (0): BasicBlockCifar10(<NewLine>      (conv1): Conv2d(16, 32, kernel_size=(3, 3), stride=(2, 2), padding=(1, 1), bias=False)<NewLine>      (bn1): BatchNorm2d(32, eps=1e-05, momentum=0.1, affine=True, track_running_stats=True)<NewLine>      (relu1): ReLU()<NewLine>      (conv2): Conv2d(32, 32, kernel_size=(3, 3), stride=(1, 1), padding=(1, 1), bias=False)<NewLine>      (bn2): BatchNorm2d(32, eps=1e-05, momentum=0.1, affine=True, track_running_stats=True)<NewLine>      (relu2): ReLU()<NewLine>      (shortcut): LambdaLayer()<NewLine>    )<NewLine>    (1): BasicBlockCifar10(<NewLine>      (conv1): Conv2d(32, 32, kernel_size=(3, 3), stride=(1, 1), padding=(1, 1), bias=False)<NewLine>      (bn1): BatchNorm2d(32, eps=1e-05, momentum=0.1, affine=True, track_running_stats=True)<NewLine>      (relu1): ReLU()<NewLine>      (conv2): Conv2d(32, 32, kernel_size=(3, 3), stride=(1, 1), padding=(1, 1), bias=False)<NewLine>      (bn2): BatchNorm2d(32, eps=1e-05, momentum=0.1, affine=True, track_running_stats=True)<NewLine>      (relu2): ReLU()<NewLine>      (shortcut): Sequential()<NewLine>    )<NewLine>    (2): BasicBlockCifar10(<NewLine>      (conv1): Conv2d(32, 32, kernel_size=(3, 3), stride=(1, 1), padding=(1, 1), bias=False)<NewLine>      (bn1): BatchNorm2d(32, eps=1e-05, momentum=0.1, affine=True, track_running_stats=True)<NewLine>      (relu1): ReLU()<NewLine>      (conv2): Conv2d(32, 32, kernel_size=(3, 3), stride=(1, 1), padding=(1, 1), bias=False)<NewLine>      (bn2): BatchNorm2d(32, eps=1e-05, momentum=0.1, affine=True, track_running_stats=True)<NewLine>      (relu2): ReLU()<NewLine>      (shortcut): Sequential()<NewLine>    )<NewLine>  )<NewLine>  (layer3): Sequential(<NewLine>    (0): BasicBlockCifar10(<NewLine>      (conv1): Conv2d(32, 64, kernel_size=(3, 3), stride=(2, 2), padding=(1, 1), bias=False)<NewLine>      (bn1): BatchNorm2d(64, eps=1e-05, momentum=0.1, affine=True, track_running_stats=True)<NewLine>      (relu1): ReLU()<NewLine>      (conv2): Conv2d(64, 64, kernel_size=(3, 3), stride=(1, 1), padding=(1, 1), bias=False)<NewLine>      (bn2): BatchNorm2d(64, eps=1e-05, momentum=0.1, affine=True, track_running_stats=True)<NewLine>      (relu2): ReLU()<NewLine>      (shortcut): LambdaLayer()<NewLine>    )<NewLine>    (1): BasicBlockCifar10(<NewLine>      (conv1): Conv2d(64, 64, kernel_size=(3, 3), stride=(1, 1), padding=(1, 1), bias=False)<NewLine>      (bn1): BatchNorm2d(64, eps=1e-05, momentum=0.1, affine=True, track_running_stats=True)<NewLine>      (relu1): ReLU()<NewLine>      (conv2): Conv2d(64, 64, kernel_size=(3, 3), stride=(1, 1), padding=(1, 1), bias=False)<NewLine>      (bn2): BatchNorm2d(64, eps=1e-05, momentum=0.1, affine=True, track_running_stats=True)<NewLine>      (relu2): ReLU()<NewLine>      (shortcut): Sequential()<NewLine>    )<NewLine>    (2): BasicBlockCifar10(<NewLine>      (conv1): Conv2d(64, 64, kernel_size=(3, 3), stride=(1, 1), padding=(1, 1), bias=False)<NewLine>      (bn1): BatchNorm2d(64, eps=1e-05, momentum=0.1, affine=True, track_running_stats=True)<NewLine>      (relu1): ReLU()<NewLine>      (conv2): Conv2d(64, 64, kernel_size=(3, 3), stride=(1, 1), padding=(1, 1), bias=False)<NewLine>      (bn2): BatchNorm2d(64, eps=1e-05, momentum=0.1, affine=True, track_running_stats=True)<NewLine>      (relu2): ReLU()<NewLine>      (shortcut): Sequential()<NewLine>    )<NewLine>  )<NewLine>  (linear): Linear(in_features=64, out_features=10, bias=True)<NewLine>)<NewLine></code></pre><NewLine><p>I then convert it to a model that can be trained using QAT:<br/><NewLine>(quant and dequant, fuse layers and torch.quantization.prepare_qat)</p><NewLine><pre><code class=""lang-auto"">QuantWrapper(<NewLine>  (quant): QuantStub(<NewLine>    (observer): FakeQuantize(<NewLine>      fake_quant_enabled=True, observer
…
