…
lt="":bowing_man:"" class=""emoji"" src=""https://discuss.pytorch.org/images/emoji/apple/bowing_man.png?v=9"" title="":bowing_man:""/></p><NewLine><p>Considering <a class=""mention"" href=""/u/david_reiss"">@David_Reiss</a>’s reply in this <a href=""https://discuss.pytorch.org/t/pytorch-mobile-ios-resnet50-not-computing/61014/11"">issue</a>, could this behavior be a bug?</p><NewLine><p>Here’s the layers to my traced model</p><NewLine><pre><code class=""lang-auto"">Backbone(<NewLine>  original_name=Backbone<NewLine>  (input_layer): Sequential(<NewLine>    original_name=Sequential<NewLine>    (0): Conv2d(original_name=Conv2d)<NewLine>    (1): BatchNorm2d(original_name=BatchNorm2d)<NewLine>    (2): PReLU(original_name=PReLU)<NewLine>  )<NewLine>  (output_layer): Sequential(<NewLine>    original_name=Sequential<NewLine>    (0): BatchNorm2d(original_name=BatchNorm2d)<NewLine>    (1): Dropout(original_name=Dropout)<NewLine>    (2): Flatten(original_name=Flatten)<NewLine>    (3): Linear(original_name=Linear)<NewLine>    (4): BatchNorm1d(original_name=BatchNorm1d)<NewLine>  )<NewLine>  (body): Sequential(<NewLine>    original_name=Sequential<NewLine>    (0): bottleneck_IR_SE(<NewLine>      original_name=bottleneck_IR_SE<NewLine>      (shortcut_layer): MaxPool2d(original_name=MaxPool2d)<NewLine>      (res_layer): Sequential(<NewLine>        original_name=Sequential<NewLine>        (0): BatchNorm2d(original_name=BatchNorm2d)<NewLine>        (1): Conv2d(original_name=Conv2d)<NewLine>        (2): PReLU(original_name=PReLU)<NewLine>        (3): Conv2d(original_name=Conv2d)<NewLine>        (4): BatchNorm2d(original_name=BatchNorm2d)<NewLine>        (5): SEModule(<NewLine>          original_name=SEModule<NewLine>          (avg_pool): AdaptiveAvgPool2d(original_name=AdaptiveAvgPool2d)<NewLine>          (fc1): Conv2d(original_name=Conv2d)<NewLine>          (relu): ReLU(original_name=ReLU)<NewLine>          (fc2): Conv2d(original_name=Conv2d)<NewLine>          (sigmoid): Sigmoid(original_name=Sigmoid)<NewLine>        )<NewLine>      )<NewLine>    )<NewLine>    (1): bottleneck_IR_SE(<NewLine>      original_name=bottleneck_IR_SE<NewLine>      (shortcut_layer): MaxPool2d(original_name=MaxPool2d)<NewLine>      (res_layer): Sequential(<NewLine>        original_name=Sequential<NewLine>        (0): BatchNorm2d(original_name=BatchNorm2d)<NewLine>        (1): Conv2d(original_name=Conv2d)<NewLine>        (2): PReLU(original_name=PReLU)<NewLine>        (3): Conv2d(original_name=Conv2d)<NewLine>        (4): BatchNorm2d(original_name=BatchNorm2d)<NewLine>        (5): SEModule(<NewLine>          original_name=SEModule<NewLine>          (avg_pool): AdaptiveAvgPool2d(original_name=AdaptiveAvgPool2d)<NewLine>          (fc1): Conv2d(original_name=Conv2d)<NewLine>          (relu): ReLU(original_name=ReLU)<NewLine>          (fc2): Conv2d(original_name=Conv2d)<NewLine>          (sigmoid): Sigmoid(original_name=Sigmoid)<NewLine>        )<NewLine>      )<NewLine>    )<NewLine>    (2): bottleneck_IR_SE(<NewLine>      original_name=bottleneck_IR_SE<NewLine>      (shortcut_layer): MaxPool2d(original_name=MaxPool2d)<NewLine>      (res_layer): Sequential(<NewLine>        original_name=Sequential<NewLine>        (0): BatchNorm2d(original_name=BatchNorm2d)<NewLine>        (1): Conv2d(original_name=Conv2d)<NewLine>        (2): PReLU(original_name=PReLU)<NewLine>        (3): Conv2d(original_name=Conv2d)<NewLine>        (4): BatchNorm2d(original_name=BatchNorm2d)<NewLine>        (5): SEModule(<NewLine>          original_name=SEModule<NewLine>          (avg_pool): AdaptiveAvgPool2d(original_name=AdaptiveAvgPool2d)<NewLine>          (fc1): Conv2d(original_name=Conv2d)<NewLine>          (relu): ReLU(original_name=ReLU)<NewLine>          (fc2): Conv2d(original_name=Conv2d)<NewLine>          (sigmoid): Sigmoid(original_name=Sigmoid)<NewLine>        )<NewLine>      )<NewLine>    )<NewLine>    (3): bottleneck_IR_SE(<NewLine>      original_name=bottleneck_IR_SE<NewLine>      (shortcut_layer): Sequential(<NewLine>        original_name=Sequential<NewLine>        (0): Conv2d(original_name=Conv2d)<NewLine>        (1): BatchNorm2d(original_name=BatchNorm2d)<NewLine>      )<NewLine>      (res_layer): Sequential(<NewLine>        original_name=Sequential<NewLine>        (0): BatchNorm2d(original_name=BatchNorm2d)<NewLine>        (1): Conv2d(original_name=Conv2d)<NewLine>        (2): PReLU(original_name=PReLU)<NewLine>        (3): Conv2d(original_name=Conv2d)<NewLine>        (4): BatchNorm2d(original_name=BatchNorm2d)<NewLine>        (5): SEModule(<NewLine>          original_name=SEModule<NewLine>          (avg_pool): AdaptiveAvgPool2d(original_name=AdaptiveAvgPool2d)<NewLine>          (fc1): Conv2d(original_name=Conv2d)<NewLine>          (relu): ReLU(original_name=ReLU)<NewLine>          (fc2): Conv2d(original_name=Conv2d)<NewLine>          (sigmoid): Sigmoid(original_name=Sigmoid)<NewLine>        )<NewLine>      )<NewLine>    )<NewLine>    (4): bottleneck_IR_SE(<NewLine>      original_name=bottleneck_IR_SE<NewLine>      (shortcut_layer): MaxPool2d(original_name=MaxPool2d)<NewLine>      (res_layer): Sequential(<NewLine>        original_name=Sequential<NewLine>        (0): BatchNorm2d(original_name=BatchNorm2d)<NewLine>        (1): Conv2d(original_name=Conv2d)<NewLine>        (2): PReLU(original_name=PReLU)<NewLine>        (3): Conv2d(original_name=Conv2d)<NewLine>        (4): BatchNorm2d(original_name=BatchNorm2d)<NewLine>        (5): SEModule(<NewLine>          original_name=SEModule<NewLine>          (avg_pool): AdaptiveAvgPool2d(original_name=AdaptiveAvgPool2d)<NewLine>          (fc1): Conv2d(original_name=Conv2d)<NewLine>          (relu): ReLU(original_name=ReLU)<NewLine>          (fc2): Conv2d(original_name=Conv2d)<NewLine>          (sigmoid): Sigmoid(original_name=Sigmoid)<NewLine>        )<NewLine>      )<NewLine>    )<NewLine>    (5): bottleneck_IR_SE(<NewLine>      original_name=bottleneck_IR_SE<NewLine>      (shortcut_layer): MaxPool2d(original_name=MaxPool2d)<NewLine>      (res_layer): Sequential(<NewLine>        original_name=Sequential<NewLine>        (0): BatchNorm2d(original_name=BatchNorm2d)<NewLine>        (1): Conv2d(original_name=Conv2d)<NewLine>        (2): PReLU(original_name=PReLU)<NewLine>        (3): Conv2d(original_name=Conv2d)<NewLine>        (4): BatchNorm2d(original_name=BatchNorm2d)<NewLine>        (5): SEModule(<NewLine>          original_name=SEModule<NewLine>          (avg_pool): AdaptiveAvgPool2d(original_name=AdaptiveAvgPool2d)<NewLine>          (fc1): Conv2d(original_name=Conv2d)<NewLine>          (relu): ReLU(original_name=ReLU)<NewLine>          (fc2): Conv2d(original_name=Conv2d)<NewLine>          (sigmoid): Sigmoid(original_name=Sigmoid)<NewLine>        )<NewLine>      )<NewLine>    )<NewLine>    (6): bottleneck_IR_SE(<NewLine>      original_name=bottleneck_IR_SE<NewLine>      (shortcut_layer): MaxPool2d(original_name=MaxPool2d)<NewLine>      (res_layer): Sequential(<NewLine>        original_name=Sequential<NewLine>        (0): BatchNorm2d(original_name=BatchNorm2d)<NewLine>        (1): Conv2d(original_name=Conv2d)<NewLine>        (2): PReLU(original_name=PReLU)<NewLine>        (3): Conv2d(original_name=Conv2d)<NewLine>        (4): BatchNorm2d(original_name=BatchNorm2d)<NewLine>        (5): SEModule(<NewLine>          original_name=SEModule<NewLine>          (avg_pool): AdaptiveAvgPool2d(original_name=AdaptiveAvgPool2d)<NewLine>          (fc1): Conv2d(original_name=Conv2d)<NewLine>          (relu): ReLU(original_name=ReLU)<NewLine>          (fc2): Conv2d(original_name=Conv2d)<NewLine>          (sigmoid): Sigmoid(original_name=Sigmoid)<NewLine>        )<NewLine>      )<NewLine>    )<NewLine>    (7): bottleneck_IR_SE(<NewLine>      original_name=bottleneck_IR_SE<NewLine>      (shortcut_layer): Sequential(<NewLine>        original_name=Sequential<NewLine>        (0): Conv2d(original_name=Conv2d)<NewLine>        (1): BatchNorm2d(original_name=BatchNorm2d)<NewLine>      )<NewLine>      (res_layer): Sequential(<NewLine>        original_name=Sequential<NewLine>        (0): BatchNorm2d(original_name=BatchNorm2d)<NewLine>        (1): Conv2d(original_name=Conv2d)<NewLine>        (2): PReLU(original_name=PReLU)<NewLine>        (3): Conv2d(original_name=Conv2d)<NewLine>        (4): BatchNorm2d(original_name=BatchNorm2d)<NewLine>        (5): SEModule(<NewLine>          original_name=SEModule<NewLine>          (avg_pool): AdaptiveAvgPool2d(original_name=AdaptiveAvgPool2d)<NewLine>          (fc1): Conv2d(original_name=Conv2d)<NewLine>          (relu): ReLU(original_name=ReLU)<NewLine>          (fc2): Conv2d(original_name=Conv2d)<NewLine>          (sigmoid): Sigmoid(original_name=Sigmoid)<NewLine>        )<NewLine>      )<NewLine>    )<NewLine>    (8): bottleneck_IR_SE(<NewLine>      original_name=bottleneck_IR_SE<NewLine>      (shortcut_layer): MaxPool2d(original_name=MaxPool2d)<NewLine>      (res_layer): Sequential(<NewLine>        original_name=Sequential<NewLine>        (0): BatchNorm2d(original_name=BatchNorm2d)<NewLine>        (1): Conv2d(original_name=Conv2d)<NewLine>        (2): PReLU(original_name=PReLU)<NewLine>        (3): Conv2d(original_name=Conv2d)<NewLine>        (4): BatchNorm2d(original_name=BatchNorm2d)<NewLine>        (5): SEModule(<NewLine>          original_name=SEModule<NewLine>          (avg_pool): AdaptiveAvgPool2d(original_name=AdaptiveAvgPool2d)<NewLine>          (fc1): Conv2d(original_name=Conv2d)<NewLine>          (relu): ReLU(original_name=ReLU)<NewLine>          (fc2): Conv2d(original_name=Conv2d)<NewLine>          (sigmoid): Sigmoid(original_name=Sigmoid)<NewLine>        )<NewLine>      )<NewLine>    )<NewLine>    (9): bottleneck_IR_SE(<NewLine>      original_name=bottleneck_IR_SE<NewLine>      (shortcut_layer): MaxPool2d(original_name=MaxPool2d)<NewLine>      (res_layer): Sequential(<NewLine>        original_name=Sequential<NewLine>        (0): BatchNorm2d(original_name=BatchNorm2d)<NewLine>        (1): Conv2d(original_name=Conv2d)<NewLine>        (2): PReLU(original_name=PReLU)<NewLine>        (3): Conv2d(original_name=Conv2d)<NewLine>        (4): BatchNorm2d(original_name=BatchNorm2d)<NewLine>        (5): SEModule(<NewLine>          original_name=SEModule<NewLine>          (avg_pool): AdaptiveAvgPool2d(original_name=AdaptiveAvgPool2d)<NewLine>          (fc1): Conv2d(original_name=Conv2d)<NewLine>          (relu): ReLU(original_name=ReLU)<NewLine>          (fc2): Conv2d(original_name=Conv2d)<NewLine>          (sigmoid): Sigmoid(original_name=Sigmoid)<NewLine>        )<NewLine>      )<NewLine>    )<NewLine>    (10): bottleneck_IR_SE(<NewLine>      original_name=bottleneck_IR_SE<NewLine>      (shortcut_layer): MaxPool2d(original_name=MaxPool2d)<NewLine>      (res_layer): Sequential(<NewLine>        original_name=Sequential<NewLine>        (0): BatchNorm2d(original_name=BatchNorm2d)<NewLine>        (1): Conv2d(original_name=Conv2d)<NewLine>        (2): PReLU(original_name=PReLU)<NewLine>        (3): Conv2d(original_name=Conv2d)<NewLine>        (4): BatchNorm2d(original_name=BatchNorm2d)<NewLine>        (5): SEModule(<NewLine>          original_name=SEModule<NewLine>          (avg_pool): AdaptiveAvgPool2d(original_name=AdaptiveAvgPool2d)<NewLine>          (fc1): Conv2d(original_name=Conv2d)<NewLine>          (relu): ReLU(original_name=ReLU)<NewLine>          (fc2): Conv2d(original_name=Conv2d)<NewLine>          (sigmoid): Sigmoid(original_name=Sigmoid)<NewLine>        )<NewLine>      )<NewLine>    )<NewLine>    (11): bottleneck_IR_SE(<NewLine>      original_name=bottleneck_IR_SE<NewLine>      (shortcut_layer): MaxPool2d(original_name=MaxPool2d)<NewLine>      (res_layer): Sequential(<NewLine>        original_name=Sequential<NewLine>        (0): BatchNorm2d(original_name=BatchNorm2d)<NewLine>        (1): Conv2d(original_name=Conv2d)<NewLine>        (2): PReLU(original_name=PReLU)<NewLine>        (3): Conv2d(original_name=Conv2d)<NewLine>        (4): BatchNorm2d(original_name=BatchNorm2d)<NewLine>        (5): SEModule(<NewLine>          original_name=SEModule<NewLine>          (avg_pool): AdaptiveAvgPool2d(original_name=AdaptiveAvgPool2d)<NewLine>          (fc1): Conv2d(original_name=Conv2d)<NewLine>          (relu): ReLU(original_name=ReLU)<NewLine>          (fc2): Conv2d(original_name=Conv2d)<NewLine>          (sigmoid): Sigmoid(original_name=Sigmoid)<NewLine>        )<NewLine>      )<NewLine>    )<NewLine>    (12): bottleneck_IR_SE(<NewLine>      original_name=bottleneck_IR_SE<NewLine>      (shortcut_layer): MaxPool2d(original_name=MaxPool2d)<NewLine>      (res_layer): Sequential(<NewLine>        original_name=Sequential<NewLine>        (0): BatchNorm2d(original_name=BatchNorm2d)<NewLine>        (1): Conv2d(original_name=Conv2d)<NewLine>        (2): PReLU(original_name=PReLU)<NewLine>        (3): Conv2d(original_name=Conv2d)<NewLine>        (4): BatchNorm2d(original_name=BatchNorm2d)<NewLine>        (5): SEModule(<NewLine>          original_name=SEModule<NewLine>          (avg_pool): AdaptiveAvgPool2d(original_name=AdaptiveAvgPool2d)<NewLine>          (fc1): Conv2d(original_name=Conv2d)<NewLine>          (relu): ReLU(original_name=ReLU)<NewLine>          (fc2): Conv2d(original_name=Conv2d)<NewLine>          (sigmoid): Sigmoid(original_name=Sigmoid)<NewLine>        )<NewLine>      )<NewLine>    )<NewLine>    (13): bottleneck_IR_SE(<NewLine>      original_name=bottleneck_IR_SE<NewLine>      (shortcut_layer): MaxPool2d(original_name=MaxPool2d)<NewLine>      (res_layer): Sequential(<NewLine>        original_name=Sequential<NewLine>        (0): BatchNorm2d(original_name=BatchNorm2d)<NewLine>        (1): Conv2d(original_name=Conv2d)<NewLine>        (2): PReLU(original_name=PReLU)<NewLine>        (3): Conv2d(original_name=Conv2d)<NewLine>        (4): BatchNorm2d(original_name=BatchNorm2d)<NewLine>        (5): SEModule(<NewLine>          original_name=SEModule<NewLine>          (avg_pool): AdaptiveAvgPool2d(original_name=AdaptiveAvgPool2d)<NewLine>          (fc1): Conv2d(original_name=Conv2d)<NewLine>          (relu): ReLU(original_name=ReLU)<NewLine>          (fc2): Conv2d(original_name=Conv2d)<NewLine>          (sigmoid): Sigmoid(original_name=Sigmoid)<NewLine>        )<NewLine>      )<NewLine>    )<NewLine>    (14): bottleneck_IR_SE(<NewLine>      original_name=bottleneck_IR_SE<NewLine>      (shortcut_layer): MaxPool2d(original_name=MaxPool2d)<NewLine>      (res_layer): Sequential(<NewLine>        original_name=Sequential<NewLine>        (0): BatchNorm2d(original_name=BatchNorm2d)<NewLine>        (1): Conv2d(original_name=Conv2d)<NewLine>        (2): PReLU(original_name=PReLU)<NewLine>        (3): Conv2d(original_name=Conv2d)<NewLine>        (4): BatchNorm2d(original_name=BatchNorm2d)<NewLine>        (5): SEModule(<NewLine>          original_name=SEModule<NewLine>          (avg_pool): AdaptiveAvgPool2d(original_name=AdaptiveAvgPool2d)<NewLine>          (fc1): Conv2d(original_name=Conv2d)<NewLine>          (relu): ReLU(original_name=ReLU)<NewLine>          (fc2): Conv2d(original_name=Conv2d)<NewLine>          (sigmoid): Sigmoid(original_name=Sigmoid)<NewLine>        )<NewLine>      )<NewLine>    )<NewLine>    (15): bottleneck_IR_SE(<NewLine>      original_name=bottleneck_IR_SE<NewLine>      (shortcut_layer): MaxPool2d(original_name=MaxPool2d)<NewLine>      (res_layer): Sequential(<NewLine>        original_name=Sequential<NewLine>        (0): BatchNorm2d(original_name=BatchNorm2d)<NewLine>        (1): Conv2d(original_name=Conv2d)<NewLine>        (2): PReLU(original_name=PReLU)<NewLine>        (3): Conv2d(original_name=Conv2d)<NewLine>        (4): BatchNorm2d(original_name=BatchNorm2d)<NewLine>        (5): SEModule(<NewLine>          original_name=SEModule<NewLine>          (avg_pool): AdaptiveAvgPool2d(original_name=AdaptiveAvgPool2d)<NewLine>          (fc1): Conv2d(original_name=Conv2d)<NewLine>          (relu): ReLU(original_name=ReLU)<NewLine>          (fc2): Conv2d(original_name=Conv2d)<NewLine>          (sigmoid): Sigmoid(original_name=Sigmoid)<NewLine>        )<NewLine>      )<NewLine>    )<NewLine>    (16): bottleneck_IR_SE(<NewLine>      original_name=bottleneck_IR_SE<NewLine>      (shortcut_layer): MaxPool2d(original_name=MaxPool2d)<NewLine>      (res_layer): Sequential(<NewLine>        original_name=Sequential<NewLine>        (0): BatchNorm2d(original_name=BatchNorm2d)<NewLine>        (1): Conv2d(original_name=Conv2d)<NewLine>        (2): PReLU(original_name=PReLU)<NewLine>        (3): Conv2d(original_name=Conv2d)<NewLine>        (4): BatchNorm2d(original_name=BatchNorm2d)<NewLine>        (5): SEModule(<NewLine>          original_name=SEModule<NewLine>          (avg_pool): AdaptiveAvgPool2d(original_name=AdaptiveAvgPool2d)<NewLine>          (fc1): Conv2d(original_name=Conv2d)<NewLine>          (relu): ReLU(original_name=ReLU)<NewLine>          (fc2): Conv2d(original_name=Conv2d)<NewLine>          (sigmoid): Sigmoid(original_name=Sigmoid)<NewLine>        )<NewLine>      )<NewLine>    )<NewLine>    (17): bottleneck_IR_SE(<NewLine>      original_name=bottleneck_IR_SE<NewLine>      (shortcut_layer): MaxPool2d(original_name=MaxPool2d)<NewLine>      (res_layer): Sequential(<NewLine>        original_name=Sequential<NewLine>        (0): BatchNorm2d(original_name=BatchNorm2d)<NewLine>        (1): Conv2d(original_name=Conv2d)<NewLine>        (2): PReLU(original_name=PReLU)<NewLine>        (3): Conv2d(original_name=Conv2d)<NewLine>        (4): BatchNorm2d(original_name=BatchNorm2d)<NewLine>        (5): SEModule(<NewLine>          original_name=SEModule<NewLine>          (avg_pool): AdaptiveAvgPool2d(original_name=AdaptiveAvgPool2d)<NewLine>          (fc1): Conv2d(original_name=Conv2d)<NewLine>          (relu): ReLU(original_name=ReLU)<NewLine>          (fc2): Conv2d(original_name=Conv2d)<NewLine>          (sigmoid): Sigmoid(original_name=Sigmoid)<NewLine>        )<NewLine>      )<NewLine>    )<NewLine>    (18): bottleneck_IR_SE(<NewLine>      original_name=bottleneck_IR_SE<NewLine>      (shortcut_layer): MaxPool2d(original_name=MaxPool2d)<NewLine>      (res_layer): Sequential(<NewLine>        original_name=Sequential<NewLine>        (0): BatchNorm2d(original_name=BatchNorm2d)<NewLine>        (1): Conv2d(original_name=Conv2d)<NewLine>        (2): PReLU(original_name=PReLU)<NewLine>        (3): Conv2d(original_name=Conv2d)<NewLine>        (4): BatchNorm2d(original_name=BatchNorm2d)<NewLine>        (5): SEModule(<NewLine>          original_name=SEModule<NewLine>          (avg_pool): AdaptiveAvgPool2d(original_name=AdaptiveAvgPool2d)<NewLine>          (fc1): Conv2d(original_name=Conv2d)<NewLine>          (relu): ReLU(original_name=ReLU)<NewLine>          (fc2): Conv2d(original_name=Conv2d)<NewLine>          (sigmoid): Sigmoid(original_name=Sigmoid)<NewLine>        )<NewLine>      )<NewLine>    )<NewLine>    (19): bottleneck_IR_SE(<NewLine>      original_name=bottleneck_IR_SE<NewLine>      (shortcut_layer): MaxPool2d(original_name=MaxPool2d)<NewLine>      (res_layer): Sequential(<NewLine>        original_name=Sequential<NewLine>        (0): BatchNorm2d(original_name=BatchNorm2d)<NewLine>        (1): Conv2d(original_name=Conv2d)<NewLine>        (2): PReLU(original_name=PReLU)<NewLine>        (3): Conv2d(original_name=Conv2d)<NewLine>        (4): BatchNorm2d(original_name=BatchNorm2d)<NewLine>        (5): SEModule(<NewLine>          original_name=SEModule<NewLine>          (avg_pool): AdaptiveAvgPool2d(original_name=AdaptiveAvgPool2d)<NewLine>          (fc1): Conv2d(original_name=Conv2d)<NewLine>          (relu): ReLU(original_name=ReLU)<NewLine>          (fc2): Conv2d(original_name=Conv2d)<NewLine>          (sigmoid): Sigmoid(original_name=Sigmoid)<NewLine>        )<NewLine>      )<NewLine>    )<NewLine>    (20): bottleneck_IR_SE(<NewLine>      original_name=bottleneck_IR_SE<NewLine>      (shortcut_layer): MaxPool2d(original_name=MaxPool2d)<NewLine>      (res_layer): Sequential(<NewLine>        original_name=Sequential<NewLine>        (0): BatchNorm2d(original_name=BatchNorm2d)<NewLine>        (1): Conv2d(original_name=Conv2d)<NewLine>        (2): PReLU(original_name=PReLU)<NewLine>        (3): Conv2d(original_name=Conv2d)<NewLine>        (4): BatchNorm2d(original_name=BatchNorm2d)<NewLine>        (5): SEModule(<NewLine>          original_name=SEModule<NewLine>          (avg_pool): AdaptiveAvgPool2d(original_name=AdaptiveAvgPool2d)<NewLine>          (fc1): Conv2d(original_name=Conv2d)<NewLine>          (relu): ReLU(original_name=ReLU)<NewLine>          (fc2): Conv2d(original_name=Conv2d)<NewLine>          (sigmoid): Sigmoid(original_name=Sigmoid)<NewLine>        )<NewLine>      )<NewLine>    )<NewLine>    (21): bottleneck_IR_SE(<NewLine>      original_name=bottleneck_IR_SE<NewLine>      (shortcut_layer): Sequential(<NewLine>        original_name=Sequential<NewLine>        (0): Conv2d(original_name=Conv2d)<NewLine>        (1): BatchNorm2d(original_name=BatchNorm2d)<NewLine>      )<NewLine>      (res_layer): Sequential(<NewLine>        original_name=Sequential<NewLine>        (0): BatchNorm2d(original_name=BatchNorm2d)<NewLine>        (1): Conv2d(original_name=Conv2d)<NewLine>        (2): PReLU(original_name=PReLU)<NewLine>        (3): Conv2d(original_name=Conv2d)<NewLine>        (4): BatchNorm2d(original_name=BatchNorm2d)<NewLine>        (5): SEModule(<NewLine>          original_name=SEModule<NewLine>          (avg_pool): AdaptiveAvgPool2d(original_name=AdaptiveAvgPool2d)<NewLine>          (fc1): Conv2d(original_name=Conv2d)<NewLine>          (relu): ReLU(original_name=ReLU)<NewLine>          (fc2): Conv2d(original_name=Conv2d)<NewLine>          (sigmoid): Sigmoid(original_name=Sigmoid)<NewLine>        )<NewLine>      )<NewLine>    )<NewLine>    (22): bottleneck_IR_SE(<NewLine>      original_name=bottleneck_IR_SE<NewLine>      (shortcut_layer): MaxPool2d(original_name=MaxPool2d)<NewLine>      (res_layer): Sequential(<NewLine>        original_name=Sequential<NewLine>        (0): BatchNorm2d(original_name=BatchNorm2d)<NewLine>        (1): Conv2d(original_name=Conv2d)<NewLine>        (2): PReLU(original_name=PReLU)<NewLine>        (3): Conv2d(original_name=Conv2d)<NewLine>        (4): BatchNorm2d(original_name=BatchNorm2d)<NewLine>        (5): SEModule(<NewLine>          original_name=SEModule<NewLine>          (avg_pool): AdaptiveAvgPool2d(original_name=AdaptiveAvgPool2d)<NewLine>          (fc1): Conv2d(original_name=Conv2d)<NewLine>          (relu): ReLU(original_name=ReLU)<NewLine>          (fc2): Conv2d(original_name=Conv2d)<NewLine>          (sigmoid): Sigmoid(original_name=Sigmoid)<NewLine>        )<NewLine>      )<NewLine>    )<NewLine>    (23): bottleneck_IR_SE(<NewLine>      original_name=bottleneck_IR_SE<NewLine>      (shortcut_layer): MaxPool2d(original_name=MaxPool2d)<NewLine>      (res_layer): Sequential(<NewLine>        original_name=Sequential<NewLine>        (0): BatchNorm2d(original_name=BatchNorm2d)<NewLine>        (1): Conv2d(original_name=Conv2d)<NewLine>        (2): PReLU(original_name=PReLU)<NewLine>        (3): Conv2d(original_name=Conv2d)<NewLine>        (4): BatchNorm2d(original_name=BatchNorm2d)<NewLine>        (5): SEModule(<NewLine>          original_name=SEModule<NewLine>          (avg_pool): AdaptiveAvgPool2d(original_name=AdaptiveAvgPool2d)<NewLine>          (fc1): Conv2d(original_name=Conv2d)<NewLine>          (relu): ReLU(original_name=ReLU)<NewLine>          (fc2): Conv2d(original_name=Conv2d)<NewLine>          (sigmoid): Sigmoid(original_name=Sigmoid)<NewLine>        )<NewLine>      )<NewLine>    )<NewLine>  )<NewLine></code></pre><NewLine></div>",https://discuss.pytorch.org/u/maxmx911,(Sean Ng),maxmx911,"June 11, 2020,  8:35am",,,,,
84781,Pytorch C++ with Java Native Interface (JNI) linking error,2020-06-09T15:04:26.985Z,0,116,"<div class=""post"" itemprop=""arti
…
